…
		[34m[1mhyperparameters: [0mlr0=0.01, lrf=0.2, momentum=0.937, weight_decay=0.0005, warmup_epochs=3.0, warmup_momentum=0.8, warmup_bias_lr=0.1, box=0.05, cls=0.5, cls_pw=1.0, obj=1.0, obj_pw=1.0, iou_t=0.2, anchor_t=4.0, fl_gamma=0.0, hsv_h=0.015, hsv_s=0.7, hsv_v=0.4, degrees=0.0, translate=0.1, scale=0.5, shear=0.0, perspective=0.0, flipud=0.0, fliplr=0.5, mosaic=1.0, mixup=0.0
		[34m[1mwandb: [0mInstall Weights & Biases for YOLOv5 logging with 'pip install wandb' (recommended)
		
		                 from  n    params  module                                  arguments                     
		  0                -1  1      3520  models.common.Focus                     [3, 32, 3]                    
		  1                -1  1     18560  models.common.Conv                      [32, 64, 3, 2]                
		  2                -1  1     18816  models.common.C3                        [64, 64, 1]                   
		  3                -1  1     73984  models.common.Conv                      [64, 128, 3, 2]               
		  4                -1  1    156928  models.common.C3                        [128, 128, 3]                 
		  5                -1  1    295424  models.common.Conv                      [128, 256, 3, 2]              
		  6                -1  1    625152  models.common.C3                        [256, 256, 3]                 
		  7                -1  1   1180672  models.common.Conv                      [256, 512, 3, 2]              
		  8                -1  1    656896  models.common.SPP                       [512, 512, [5, 9, 13]]        
		  9                -1  1   1182720  models.common.C3                        [512, 512, 1, False]          
		 10                -1  1    131584  models.common.Conv                      [512, 256, 1, 1]              
		 11                -1  1         0  torch.nn.modules.upsampling.Upsample    [None, 2, 'nearest']          
		 12           [-1, 6]  1         0  models.common.Concat                    [1]                           
		 13                -1  1    361984  models.common.C3                        [512, 256, 1, False]          
		 14                -1  1     33024  models.common.Conv                      [256, 128, 1, 1]              
		 15                -1  1         0  torch.nn.modules.upsampling.Upsample    [None, 2, 'nearest']          
		 16           [-1, 4]  1         0  models.common.Concat                    [1]                           
		 17                -1  1     90880  models.common.C3                        [256, 128, 1, False]          
		 18                -1  1    147712  models.common.Conv                      [128, 128, 3, 2]              
		 19          [-1, 14]  1         0  models.common.Concat                    [1]                           
		 20                -1  1    296448  models.common.C3                        [256, 256, 1, False]          
		 21                -1  1    590336  models.common.Conv                      [256, 256, 3, 2]              
		 22          [-1, 10]  1         0  models.common.Concat                    [1]                           
		 23                -1  1   1182720  models.common.C3                        [512, 512, 1, False]          
		 24      [17, 20, 23]  1     18879  models.yolo.Detect                      [2, [[10, 13, 16, 30, 33, 23], [30, 61, 62, 45, 59, 119], [116, 90, 156, 198, 373, 326]], [128, 256, 512]]
		Model Summary: 283 layers, 7066239 parameters, 7066239 gradients, 16.4 GFLOPS
		
		Transferred 354/362 items from yolov5s.pt
		Scaled weight_decay = 0.0005
		Optimizer groups: 62 .bias, 62 conv.weight, 59 other
…
